…
x = layers.Conv2D(256, 5, padding='same')(x)
x = layers.LeakyReLU()(x)
x = layers.Conv2D(256, 5, padding='same')(x)
x = layers.LeakyReLU()(x)

# Produce a 32x32 1-channel feature map
x = layers.Conv2D(channels, 7, activation='tanh', padding='same')(x)
generator = keras.models.Model(generator_input, x)
generator.summary()
```

    Using TensorFlow backend.
    

    _________________________________________________________________
    Layer (type)                 Output Shape              Param #   
    =================================================================
    input_1 (InputLayer)         (None, 32)                0         
    _________________________________________________________________
    dense_1 (Dense)              (None, 32768)             1081344   
    _________________________________________________________________
    leaky_re_lu_1 (LeakyReLU)    (None, 32768)             0         
    _________________________________________________________________
    reshape_1 (Reshape)          (None, 16, 16, 128)       0         
    _________________________________________________________________
    conv2d_1 (Conv2D)            (None, 16, 16, 256)       819456    
    _________________________________________________________________
    leaky_re_lu_2 (LeakyReLU)    (None, 16, 16, 256)       0         
    _________________________________________________________________
    conv2d_transpose_1 (Conv2DTr (None, 32, 32, 256)       1048832   
    _________________________________________________________________
    leaky_re_lu_3 (LeakyReLU)    (None, 32, 32, 256)       0         
    _________________________________________________________________
    conv2d_2 (Conv2D)            (None, 32, 32, 256)       1638656   
    _________________________________________________________________
    leaky_re_lu_4 (LeakyReLU)    (None, 32, 32, 256)       0         
    _________________________________________________________________
    conv2d_3 (Conv2D)            (None, 32, 32, 256)       1638656   
    _________________________________________________________________
    leaky_re_lu_5 (LeakyReLU)    (None, 32, 32, 256)       0         
    _________________________________________________________________
    conv2d_4 (Conv2D)            (None, 32, 32, 3)         37635     
    =================================================================
    Total params: 6,264,579
    Trainable params: 6,264,579
    Non-trainable params: 0
    _________________________________________________________________
    

## The discriminator


一個鑑別器的功能，主要是將候選圖像最為輸入，並將其分為兩類：真實or產生器。  


```python
discriminator_input = layers.Input(shape=(height, width, channels))
x = layers.Conv2D(128, 3)(discriminator_input)
…
# Binary Classification layer
x = layers.Dense(1, activation='sigmoid')(x)

# 將輸入的圖片轉換為二元分類決策
discriminator = keras.models.Model(discriminator_input, x)
discriminator.summary()


discriminator_optimizer = keras.optimizers.RMSprop(lr=0.0008, clipvalue=1.0, decay=1e-8)
discriminator.compile(optimizer=discriminator_optimizer, loss='binary_crossentropy')
```

    _________________________________________________________________
    Layer (type)                 Output Shape              Param #   
    =================================================================
    input_2 (InputLayer)         (None, 32, 32, 3)         0         
    _________________________________________________________________
    conv2d_5 (Conv2D)            (None, 30, 30, 128)       3584      
    _________________________________________________________________
    leaky_re_lu_6 (LeakyReLU)    (None, 30, 30, 128)       0         
    _________________________________________________________________
    conv2d_6 (Conv2D)            (None, 14, 14, 128)       262272    
    _________________________________________________________________
    leaky_re_lu_7 (LeakyReLU)    (None, 14, 14, 128)       0         
    _________________________________________________________________
    conv2d_7 (Conv2D)            (None, 6, 6, 128)         262272    
    _________________________________________________________________
    leaky_re_lu_8 (LeakyReLU)    (None, 6, 6, 128)         0         
    _________________________________________________________________
    conv2d_8 (Conv2D)            (None, 2, 2, 128)         262272    
    _________________________________________________________________
    leaky_re_lu_9 (LeakyReLU)    (None, 2, 2, 128)         0         
    _________________________________________________________________
    flatten_1 (Flatten)          (None, 512)               0         
    _________________________________________________________________
    dropout_1 (Dropout)          (None, 512)               0         
    _________________________________________________________________
    dense_2 (Dense)              (None, 1)                 513       
    =================================================================
    Total params: 790,913
    Trainable params: 790,913
    Non-trainable params: 0
    _________________________________________________________________
    

## The adversarial network

設定對抗網路，連結兩個主要神經網路，經過訓練後該模型會驅使生成器往提高欺騙能力當作方向前進，這個模型將潛在空間點轉換成分類決策，即判斷真假，並表示使用始終"是實體"的圖像標籤進行訓練。因此訓練gan會在查看假圖像時，使鑑別器更有可能預測"真的"的情況下更新生成器的權重。另外在訓練期間不能凍結鑑別器的設定。
…
